Model.tflite (tflite, 87948 bytes, 5 tensors)

sequential/dense_1/BiasAdd/ReadVariableOp f4 [64]
000000 86 14 8a bb 6e 4c 1b be 4e 47 0a be 50 80 15 3e
       -0.0042138724 -0.15165874 -0.13503763 0.14599729
000010 7c 15 fb 3d e5 c4 ea bd 87 5e e6 bd 27 80 bd 3d
       0.12259957 -0.11463336 -0.112484984 0.09252959
000020 be 51 2b 3e 7b e8 c7 3d 77 35 e1 bd 05 b1 ed bd
       0.16730401 0.09761139 -0.10996526 -0.116060294
000030 b0 62 84 bc 9d e0 43 be c8 54 03 3e b9 f8 28 3e
       -0.01616034 -0.19128652 0.1282531 0.1650113
000040 e1 38 28 3e 30 77 e1 3d 96 65 e6 3d 2d 91 a7 3d
       0.16427948 0.11009061 0.11249845 0.08181987
000050 02 b3 3d bc 96 54 fb bd d5 6f d5 3d bf b5 60 3d
       -0.011578323 -0.12271993 0.10421721 0.054860827
000060 8e 1b f1 3d 9e 28 e4 3d 06 80 42 3e 0f 9d 34 3e
       0.11772834 0.111405596 0.1899415 0.17638038
000070 04 70 d8 bd 61 b4 55 bc 68 88 02 be 71 3a 0c be
       -0.1056824 -0.013043494 -0.12747347 -0.13694169
000080 e3 77 a6 3d b8 2a 67 be 67 c3 bb 3c f3 f4 a6 3d
       0.08128335 -0.2257489 0.022920324 0.08152189
000090 6a f4 01 3e 70 d7 f4 bd 87 55 45 bc cc 0f 27 3e
       0.12690893 -0.11955154 -0.012044317 0.1631462
0000a0 5d 52 cc 3d 87 46 15 be e4 1c 23 3e 1f d1 fe 3d
       0.09976647 -0.14577685 0.1592899 0.124422304
0000b0 18 07 2c be 96 33 9d 3d 02 e9 4d be fe a5 e5 bd
       -0.16799581 0.07675855 -0.20108417 -0.11213301
0000c0 45 dd d6 3d 84 57 e9 bd ad 9c 40 be 07 2a cd bc
       0.104914226 -0.113936454 -0.18809767 -0.025044454
0000d0 7c 4b 9c 3d 7e 7c f2 bd 26 40 3e 3e 91 ad e1 3d
       0.07631585 -0.11840151 0.18579158 0.11019433
0000e0 52 c6 09 3e 7f 94 ed 3d 5f a7 0e 3e fd 06 18 3e
       0.1345456 0.11600589 0.13931035 0.14846416
0000f0 b4 46 31 3e 9c c1 28 3e 90 89 04 be e6 9c df bd
       0.17312127 0.16480106 -0.12943101 -0.10918598

sequential/dense/BiasAdd/ReadVariableOp f4 [128]
000000 c7 ca 09 3e 47 0d 20 3e 81 73 1d be 60 7a 9a bc
       0.1345626 0.15630065 -0.15376092 -0.018857181
000010 9d 6e 37 3e 47 40 b9 3d 5d cd cd bc f0 4b 21 3e
       0.1791329 0.09045463 -0.025122339 0.15751624
000020 00 00 00 00 00 00 00 00 88 a0 1a be f9 1a 71 3e
       0.0 0.0 -0.151003 0.23545446
000030 71 db c7 3d 89 82 07 3e 84 a8 62 be 35 80 85 be
       0.09758652 0.13233389 -0.22134596 -0.26074377
000040 2e 8d 8e 3e 70 51 bf 3d d0 f6 68 3e 80 2e 3c be
       0.27842087 0.09341705 0.22750401 -0.18377113
000050 88 ce 84 3e 00 00 00 00 22 d9 4c 3e b7 17 00 be
       0.2593882 0.0 0.20004705 -0.12509046
000060 98 48 32 3e 69 70 22 be f1 ac 06 be 29 bc 89 3a
       0.17410505 -0.15863194 -0.1315191 0.0010508347
000070 91 16 31 be 00 00 00 00 dd 13 ce 3d 30 03 33 3e
       -0.17293765 0.0 0.10062382 0.17481685
000080 57 5c 52 3e c9 53 f3 3d 94 67 7f 3e 1c 8c 83 bc
       0.20543037 0.11881215 0.24941856 -0.01605802
000090 bc 83 71 3d 6a 70 07 3e dd 40 3e be 3b 9a 35 3e
       0.058963522 0.13226476 -0.18579431 0.17734616
0000a0 08 f1 b7 3d 10 1f 32 3e 28 c9 46 be 9d 8a 2e 3e
       0.0898152 0.17394662 -0.19412673 0.17045064
0000b0 1f bc 08 3e 65 db 1a 3e 00 00 00 00 d9 a0 73 be
       0.13353013 0.15122755 0.0 -0.23791827
0000c0 17 95 84 3e 9f 6f 8f bd 22 2f 19 be 00 00 00 00
       0.25894997 -0.07003712 -0.14959386 0.0
0000d0 68 d5 56 be 76 4b de 3d 08 fb 38 3e 8c 3e 38 3e
       -0.20979846 0.10854237 0.18064511 0.1799261
0000e0 70 ef ff 3d 37 99 28 3e b4 8c f1 3c 47 3b f1 3d
       0.12496841 0.16464697 0.029486038 0.117788844
0000f0 2c ec 03 3e 00 00 00 00 91 46 4f 3e 58 23 41 be
       0.12883061 0.0 0.20241763 -0.18861139
000100 69 58 c5 bc ef 2e 5a 3e 23 18 60 be 14 59 b2 3d
       -0.024090009 0.21306966 -0.21884207 0.087083966
000110 5c 10 1c 3e 30 80 28 be 64 94 65 3e ca b0 78 be
       0.15240616 -0.1645515 0.22419888 -0.2428619
000120 8f dc 13 bc 9c c2 43 bd fa 09 5e be 83 73 8e 3e
       -0.009024753 -0.047793016 -0.21683493 0.27822503
000130 0a 37 45 be c5 0d 04 3e af 37 2b bd 8a d3 fd 39
       -0.19259277 0.12895878 -0.04180115 0.0004841353
000140 ac b4 0b 3e fc 51 fa 3d 9d fe 4a be 50 3a 19 be
       0.1364314 0.122226685 -0.1982369 -0.1496365
000150 b2 8c 55 be 61 a4 38 3e 95 8d 58 be 52 07 73 3d
       -0.20854452 0.18031456 -0.2114776 0.059333153
000160 fa e7 00 3e ba 59 35 3e b0 44 2f be 5d c4 20 3e
       0.12588492 0.17710009 -0.17116046 0.15699907
000170 00 00 00 00 a1 11 fc 3d 00 00 00 00 00 00 00 00
       0.0 0.1230805 0.0 0.0
000180 bc 84 4e be 06 d3 0b be 2e 2a 36 be dc 2c 59 3e
       -0.20167822 -0.13654718 -0.17789528 0.21208519
000190 bb e3 2a 3e 62 23 2c be a5 b4 32 be dc ec 49 3e
       0.16688435 -0.16810372 -0.17451723 0.19719261
0001a0 27 87 33 3e 72 3a 0d 3e a7 51 45 3e d4 75 73 3e
       0.17532025 0.13791826 0.19269429 0.23775417
0001b0 af 83 7c be 0e a4 66 be 0a 62 81 3e dd 7a ae 3c
       -0.24659608 -0.2252352 0.2527011 0.02129882
0001c0 f9 bf 43 3e 06 db 06 3d 1f d7 71 3e e5 bd f6 3d
       0.191162 0.03292372 0.23617218 0.12047938
0001d0 a3 19 84 3e 42 aa 3b be 43 9a 44 3e b7 1d 3f 3e
       0.2580081 -0.18326667 0.19199471 0.18663679
0001e0 09 3e 03 3e 7d 86 72 3e a3 8e f5 3d bd c8 4f 3e
       0.12816633 0.23684116 0.119900964 0.2029142
0001f0 51 8d 6f 3e 41 3d 11 3e 85 f1 4e be 7f 80 61 be
       0.23393752 0.14183523 -0.2020932 -0.22021674

sequential/dense/MatMul f4 [128, 20]
000000 41 35 88 bd a5 c3 b8 bd db 40 3c bd 76 da 9f 3d
       -0.066507824 -0.09021691 -0.04596029 0.0780534
000010 c6 4c 3c 3e ef c0 9b bd 85 fe a5 3d 35 39 85 3e
       0.18388662 -0.076051585 0.081051864 0.26020208
000020 f4 63 97 be ee 03 4f be 42 f9 0f bd a6 f3 3c be
       -0.29568446 -0.20216343 -0.03514982 -0.1845232
000030 05 fa 23 3e b9 8f 3a 3e b4 7c ce bd 83 fb 9a 3d
       0.16013344 0.18218888 -0.10082379 0.07567503
000040 ca 77 2a be ed 82 02 be a2 a8 84 be 4e 64 fc bb
       -0.16647258 -0.12745257 -0.25909907 -0.007702387
000050 e6 3f cc bd 12 76 79 be e7 89 4a 3e 10 d0 a8 bd
       -0.09973125 -0.24361446 0.19779168 -0.0824281
000060 82 47 1d bd 0b 78 c7 3b fb 02 8d be 88 8e 41 3e
       -0.038398273 0.0060873083 -0.27541336 0.18902028
000070 cc 64 31 3d 60 76 e7 bc 39 43 71 bc 22 5f ba bd
       0.043309018 -0.028254688 -0.0147255 -0.091001764
000080 17 20 82 3e d0 53 95 bd 8c e3 87 bc f7 e7 b4 bd
       0.25415108 -0.072913766 -0.016587995 -0.08833306
000090 db e1 1c 3e 4a 9f d8 3d e9 8a 0c bd d4 9f de bb
       0.15320532 0.10577257 -0.034312163 -0.0067939553
0000a0 a1 0e 91 3d 65 6b 7f 3e 16 54 43 3e a7 1f 90 39
       0.07082868 0.24943312 0.19075045 0.00027489403
0000b0 1f 00 f1 3b ea 58 72 3e ed 76 ae 3b 87 76 73 3e
       0.0073547508 0.2366673 0.0053242357 0.23775683
0000c0 8f bb 52 3d 0f eb aa bd 2d 9e 47 3b be b1 45 3e
       0.0514484 -0.08345615 0.003045927 0.19306085
0000d0 a4 e9 0b be 02 20 53 3e 7a 6d e6 3c 28 9e 23 3e
       -0.13663346 0.20617679 0.028128374 0.159783
0000e0 b4 aa 70 bd 5a f1 52 be 0f 59 26 be c5 42 ef bd
       -0.058756545 -0.20599881 -0.1624491 -0.11682657
0000f0 3c fd 0d bd da b7 07 3e c2 72 3b 3e 3c de 26 3e
       -0.03466533 0.13253728 0.18305495 0.16295713
000100 98 40 9f 3c 96 e3 8c bd cc b3 2c be e7 0f 1a be
       0.01943998 -0.06879346 -0.16865462 -0.15045129
000110 40 a4 dd bc 2d ae 6c 3d 20 ac 53 3d 54 ae 2a bd
       -0.02705586 0.057783294 0.051677823 -0.04167016
000120 21 2f 8c 3d 14 ef 2f 3e 2a 0f 40 be d6 7d d1 bd
       0.068449266 0.17181045 -0.18755785 -0.102290794
000130 36 f8 cc 3d 6d 14 db bd 80 6e f9 bd 13 2f 51 3d
       0.1000828 -0.10697255 -0.12179279 0.051070284
000140 57 e0 fd 3d 29 46 35 3d 29 7a 63 be 51 85 25 be
       0.12396305 0.044256363 -0.22214569 -0.16164137
000150 83 f0 2a be 7c e1 26 bd de 6b 41 3e 54 e9 ef bc
       -0.1669331 -0.040742382 0.18888804 -0.029286064
000160 35 ac eb bd 59 20 e4 3d ce 05 04 3e ca 3c 80 bd
       -0.11507455 0.11138982 0.1289284 -0.062615946
000170 af 4e 1d 3d af 04 c3 3d e2 53 00 be cf 2b 3a 3e
       0.038405117 0.09522378 -0.12531999 0.18180774
000180 5d 23 3d bd 7e d8 69 3d 05 46 92 be 66 67 22 be
       -0.046176303 0.05709123 -0.28569046 -0.15859756
000190 35 92 07 be 8e e1 0f 3e dc 7e 28 3d 4d 05 38 3e
       -0.13239367 0.14050886 0.041136608 0.17970772
0001a0 98 e5 e8 3d ff 8d 27 3e 59 36 d0 bc 66 80 aa 3d
       0.113719165 0.16362761 -0.02541654 0.08325271
0001b0 bc 5d 1c be dd a1 d6 bd e5 ad 4f be b5 20 17 3e
       -0.15270132 -0.10480092 -0.20281179 0.1475857
0001c0 24 ab 54 be 23 d9 16 3e 1a 3b bc 3d a9 f8 19 3e
       -0.2076841 0.14731269 0.0919096 0.15036263
0001d0 21 29 11 3d 92 b2 ec bd 5e d0 81 3d dd a6 26 bc
       0.035439614 -0.11557497 0.06338571 -0.010171619
0001e0 9e 53 a8 bd 49 a9 3e be 30 e2 ee 3d 42 a0 09 be
       -0.08219074 -0.18619265 0.116642356 -0.1344004
0001f0 08 29 bf bc 42 54 27 be 48 0d be 3c a4 f9 09 be
       -0.023334995 -0.16340736 0.023199692 -0.13474137
000200 2e 91 96 bd 92 7a ed 3d 57 d1 4a be 76 dc 89 3d
       -0.073519096 0.11595644 -0.1980642 0.06731503
000210 c2 6e d3 3d 0a bf 42 bd 69 33 49 be 23 b5 44 be
       0.1032386 -0.04754547 -0.19648518 -0.19209723
000220 73 9e da 3d 9e 60 08 be 50 26 64 bc 7b cc 4c bd
       0.10674753 -0.13318107 -0.01392515 -0.049999695
000230 74 d1 60 bd ff 20 64 3d cc 33 2d be 75 89 3d 3d
       -0.05488725 0.05569553 -0.1691429 0.046273667
000240 d6 06 dc bd 5b f4 87 bd 8c fc 19 3e 75 b6 0d be
       -0.10743491 -0.06638404 0.15037745 -0.13839133
000250 bf c3 89 3d 7c 68 9d bd 44 37 5b bd 3d 57 74 3d
       0.06726789 -0.076859444 -0.053519502 0.05965351
000260 a8 25 3e be 59 4c d7 bd c6 5d 9e 3d 2f 29 1c 3d
       -0.18569052 -0.10512609 0.077327296 0.038125213
000270 0a 39 70 be e7 9b 18 be 7a 82 22 3e 1c 70 9c be
       -0.23459259 -0.14903222 0.15870085 -0.30554283
000280 40 71 3d be 18 7f b5 bd c0 dd c0 bc 76 20 3d be
       -0.18500233 -0.08862132 -0.023543239 -0.18469414
000290 fc 3b 11 3e 10 ae 5a bc d8 2e f5 3d 68 8b 7f 3d
       0.14183038 -0.013347164 0.11971825 0.062388808
0002a0 08 30 cd 3d a0 34 0e be 70 3f fb bc 7e 1d 13 be
       0.10018927 -0.13887262 -0.030669898 -0.14366719
0002b0 54 28 0e bd 9a 93 46 be e4 90 04 be 80 45 0a be
       -0.03470643 -0.19392243 -0.12945896 -0.13503075
0002c0 0e 3b f5 bd 3e d6 15 be c4 85 4b bd 10 c7 0e 3e
       -0.119741544 -0.14632508 -0.049688116 0.13943124
0002d0 68 67 ab bc d0 5e e0 bc d7 5b f2 bd 76 e1 dc bd
       -0.020923331 -0.02738896 -0.11833923 -0.10785191
0002e0 56 a4 f7 bd ca a9 3b 3e 1c 85 b7 bd 58 52 35 bd
       -0.120918915 0.18326488 -0.089609355 -0.044267982
0002f0 ac 18 ff 3d c0 40 5f bd 98 48 f3 3c ca c8 a1 bd
       0.12455878 -0.05450511 0.029697701 -0.078996256
000300 40 03 54 3c 90 ce 10 bd 56 8e 14 be 50 0a 1b be
       0.012940228 -0.035353243 -0.14507422 -0.15140653
000310 07 d2 f4 bd 98 9c a4 3c ba 9e e1 bd 98 b1 c8 3d
       -0.11954122 0.020094201 -0.11016603 0.09799498
000320 d0 1e 0a be 56 55 d1 bd 80 98 2f 3e 36 c7 eb 3b
       -0.13488317 -0.10221355 0.17148018 0.0071953787
000330 9d c1 b7 bd 8d ad 58 3c f9 85 15 be c4 11 53 3e
       -0.08972476 0.0132249715 -0.14601888 0.20612246
000340 7f 11 79 3d 50 53 2a bc 79 78 57 3e 33 59 ea 3d
       0.0608077 -0.01039584 0.2104205 0.11442795
000350 6e 0c 24 be a4 a3 e8 3d 4d 84 bb 3d ab 48 05 bb
       -0.16020367 0.11359337 0.09156094 -0.0020337503
000360 84 f3 d1 3d 64 28 ad 3d 18 eb 5a 3e 66 78 96 3e
       0.10251525 0.084549695 0.21378744 0.29388732
000370 ad 99 16 3d c6 53 91 bd 76 5b 4e 3e 4d a1 64 3e
       0.03676765 -0.07096057 0.20152077 0.22327156
000380 e1 6f 0d be 55 60 62 3e d4 ab b9 bb db 3a 48 3c
       -0.1381221 0.2210706 -0.0056662355 0.0122210635
000390 ef f3 97 3d e1 85 4d be ac 2d 09 be a3 3f 9a 3d
       0.074195735 -0.20070602 -0.13396329 0.07531669
0003a0 46 de c9 bd ea f7 aa 3c e3 03 53 bd 0a bb 8e 3d
       -0.098568484 0.020870168 -0.05151738 0.069692686
0003b0 71 cc 95 3d d1 61 31 be 98 9d 90 be 6c 8c d6 bc
       0.07314385 -0.1732247 -0.28245234 -0.026190005
0003c0 a3 42 19 bd ac 67 ef bd 80 7d 1b 3d e0 da 6f be
       -0.037417065 -0.11689696 0.037961483 -0.23423338
0003d0 6a 4a 33 3e 36 5b 95 be df 0d 9c bd 2d be 8e bb
       0.17508855 -0.2917115 -0.07619833 -0.004356167
0003e0 83 2b ad bd ab ab 92 3e 82 f2 86 3e 45 fb 08 3e
       -0.08455565 0.28646597 0.26356894 0.13377102
0003f0 6e 36 a8 3d 12 52 48 be 19 3e 27 be 0e d3 9b bd
       0.08213507 -0.19562557 -0.16332282 -0.07608615

sequential/dense_1/MatMul f4 [64, 128]
000000 8a 2a eb bd 77 7b cd bd cc b3 91 3d 01 f3 da bd
       -0.11482723 -0.10033315 0.07114372 -0.106908806
000010 df f6 c1 bd 7c 5e 3c bd 70 3e e7 3c 1a 71 f6 bc
       -0.09470915 -0.045988545 0.028228015 -0.030083228
000020 4f 3f 0b be 3b a9 33 be be 1e f9 bd bf 2c af bd
       -0.13598369 -0.17545025 -0.12164067 -0.085534565
000030 49 2a 1c 3e ce c7 35 bd de f8 19 3d 43 a8 43 3c
       0.15250506 -0.04438 0.037590854 0.011941972
000040 80 d8 76 bd 8d af 18 3e 60 fd b2 3d 78 63 f8 3d
       -0.060265064 0.14910717 0.08739734 0.12128347
000050 35 d4 05 3e df d4 1c 3e f8 50 a7 bd 81 cd 03 3e
       0.13069232 0.15315579 -0.081697404 0.12871362
000060 e1 55 1a be ee 7c f3 bd 49 e0 e9 3c 96 f5 9c bd
       -0.15071823 -0.11889063 0.02854933 -0.07664029
000070 62 03 1b 3e 8c e9 05 3d 3a b4 b1 bd 3e e7 a9 3d
       0.15138009 0.03269343 -0.086769536 0.08296059
000080 2e 27 0b be 1c bc 04 3e b6 57 09 be 22 4b 82 bd
       -0.13589165 0.12962383 -0.13412365 -0.06361987
000090 93 24 48 bd 58 76 48 3d 4b 11 1b be ea 00 75 bd
       -0.048863005 0.048940986 -0.15143315 -0.059815325
0000a0 3a 10 fa 3d c1 aa 1a be bb 87 2f be 4f b2 21 be
       0.12210126 -0.151042 -0.17141621 -0.15790676
0000b0 26 d5 eb bd 2a 18 04 3e 18 92 95 3c 1a 4e 22 3e
       -0.11515264 0.12899843 0.01825814 0.15850106
0000c0 b2 7f 0b 3e 9a 50 00 be e7 27 1d bd fa 2c dd bd
       0.1362293 -0.12530747 -0.038368132 -0.10799594
0000d0 74 ad 35 3d ad 90 71 3d a5 02 d8 bd 94 a8 7c bd
       0.04435487 0.058975864 -0.105473794 -0.061684206
0000e0 43 89 07 3c be c2 ac bd b0 7b 7e 3d cf 07 0c 3d
       0.008272472 -0.084355816 0.062129676 0.034187134
0000f0 03 81 fe 3d 65 96 a8 bd 32 27 e2 3b d3 ba 31 3d
       0.12426951 -0.082318105 0.006901645 0.04339106
000100 d6 b1 31 be f6 ad 15 3e 77 d3 26 bd fd de 39 bd
       -0.17352995 0.14617142 -0.040729012 -0.045378674
000110 3c a5 d9 bc 86 00 8a bd 80 88 14 be 01 f6 05 3e
       -0.026568048 -0.06738381 -0.14505196 0.13082124
000120 9f a7 0f 3e 8c 82 86 bc 87 4a de bc 29 4b 76 bd
       0.14028786 -0.016419671 -0.027135147 -0.060130272
000130 e5 26 0e 3b a6 fd 08 be 89 ea 82 bd 52 2d ef 3d
       0.0021690663 -0.13378009 -0.0639239 0.11678566
000140 e7 35 04 be 53 72 38 bd 9f 07 d0 3d b4 58 9b 3d
       -0.12911187 -0.045030903 0.101577036 0.07585278
000150 81 bc 61 bc 04 ed 25 3e 12 88 af 3d 3b bc 99 bd
       -0.013777853 0.16203696 0.08570875 -0.07506605
000160 11 7e f8 3d 3a d4 dd 3d 0a 9d 97 bd 99 49 c1 bd
       0.1213342 0.10831495 -0.07403 -0.09437866
000170 c8 cd 46 bd ad d4 74 bc 6f 83 ce bd 6b 5a 83 bd
       -0.048536092 -0.014943284 -0.10083663 -0.0641373
000180 dc 4b 04 be 71 f2 09 be f4 bd b3 3c 09 9e 8a 3d
       -0.12919563 -0.1347139 0.021941163 0.06768424
000190 fb 65 47 3b a9 81 aa 3a 62 27 f4 3c 16 2b f2 3d
       0.0030425775 0.0013008612 0.029803935 0.11824624
0001a0 da 3c 9e 3c 1a c8 5c bd 6d 93 01 3e 22 24 95 bc
       0.019316126 -0.05390177 0.12653895 -0.018205706
0001b0 18 bb d9 bd 50 66 d3 3c 83 01 2f 3e 3d 68 e9 bd
       -0.106313884 0.025805622 0.1709042 -0.11396835
0001c0 ad ff 09 3e ee 3e e0 3d 1d 5e 29 be fe 66 30 bd
       0.13476439 0.10949503 -0.16539808 -0.04306697
0001d0 75 78 16 3e d3 cf 00 be f0 b1 fa bd 33 8c 05 3e
       0.14694388 -0.12579279 -0.1224097 0.13041763
0001e0 df e9 1d be a4 b2 16 be f8 06 f9 bb a5 d0 63 bd
       -0.15421246 -0.14716583 -0.0075997077 -0.0556189
0001f0 d5 85 e8 3c 69 e4 5a bc 6c 9a f0 3d ac 42 a3 3d
       0.028384129 -0.013360121 0.11748204 0.07971701
000200 c8 f0 0d be 50 2f 22 be ae df f4 3d 78 d6 80 bb
       -0.13861382 -0.15838361 0.11956726 -0.0039318167
000210 08 76 12 be 6a d8 f6 bd d2 23 b4 3d 8c 41 28 3d
       -0.14302838 -0.120529965 0.08795895 0.041078135
000220 51 7d a3 bd dc 9c 14 3d b6 9a 28 3e 06 51 a3 be
       -0.079828866 0.036282405 0.16465268 -0.31897753
000230 f2 27 45 be 4b 7f 53 be f9 e5 b9 3d b6 b9 4b 3e
       -0.19253519 -0.20654027 0.09077067 0.19895062
000240 b1 8e 8b be 23 64 aa bd b9 22 34 bd f8 be b2 3d
       -0.27257302 -0.08319881 -0.043978427 0.08727831
000250 45 65 30 bd a0 8a b7 bc 2b 14 2b be 83 a5 90 bd
       -0.04306533 -0.022404969 -0.16706912 -0.07062819
000260 0f 07 0c bd bc e2 a8 3d 41 cb dd 3d c7 09 1e bc
       -0.03418642 0.08246371 0.10829783 -0.009645886
000270 94 62 a3 3d ac ae 07 bd 00 2b de 3d ef b2 94 bd
       0.07977787 -0.033125564 0.10848045 -0.072606914
000280 aa db 97 bc 70 0f 58 be eb ff dd bd aa 3a 1d be
       -0.018537361 -0.21099639 -0.10839828 -0.1535441
000290 01 27 85 3c 93 c1 03 be 87 33 46 3e 60 e1 6b be
       0.01625395 -0.12866811 0.19355594 -0.23035192
0002a0 13 c3 8d bd 8e f2 4c be 64 6b 78 3d ef fb c5 3d
       -0.06921973 -0.20014402 0.06064929 0.09667193
0002b0 76 9e 5c be e5 16 40 be 7a fd cb 3d 6b 04 8c 3c
       -0.21544823 -0.18758734 0.09960456 0.01709195
0002c0 13 38 16 bd a3 e6 ae bd 10 89 d0 3d a3 4c 08 be
       -0.03667457 -0.08540084 0.101823926 -0.13310485
0002d0 31 0c f9 bc 78 d1 88 3d f2 44 31 be 90 9e b5 bd
       -0.030401321 0.06680578 -0.17311457 -0.08868134
0002e0 e5 a8 a7 be 5b f1 e5 bd 97 dd 8a be f1 b6 6f bc
       -0.32746044 -0.112276755 -0.27122185 -0.014631019
0002f0 53 70 b6 3d 5a ff ed 3d 7c a3 1a bd ca cf 82 3d
       0.08908143 0.1162097 -0.037753567 0.06387289
000300 d7 ed a2 3d bc 09 e3 bd 06 86 47 3e a8 30 c3 bc
       0.079555206 -0.11085841 0.1948472 -0.023826912
000310 61 49 44 be 48 7b c9 bb bc 26 a5 be d6 98 71 3e
       -0.19168617 -0.0061487295 -0.32256114 0.23593459
000320 91 fb e4 3d 28 f3 bd 3d c7 ef 04 bd a8 4a ef bc
       0.11180795 0.09274894 -0.032455232 -0.029210404
000330 75 df a5 bd 3a d0 c9 bd f1 b3 8e bc dc 63 06 3e
       -0.08099262 -0.09854169 -0.017419787 0.13124031
000340 d6 b5 4a be 79 5e a3 be da 3f 22 3e b9 54 b0 3d
       -0.19795927 -0.31908014 0.1584467 0.086099096
000350 ee 6b 37 3e c5 25 82 be 31 c9 ca 3d 54 40 11 bd
       0.17912266 -0.2541944 0.099016555 -0.03546174
000360 1d 4d 35 bd ac 98 28 bd 07 e9 df bc 37 cb 3b be
       -0.044262994 -0.041161224 -0.027332796 -0.18339239
000370 13 20 2f 3e 25 b8 ea bd ec 25 62 3d 77 68 e1 bd
       0.17102079 -0.11460904 0.055211946 -0.11006253
000380 c9 85 74 3e 26 34 95 3d 30 94 4e 3e e3 50 03 be
       0.2387916 0.07285337 0.20173717 -0.12823825
000390 f8 9a a0 bd 7e 1f 88 3d 7b f7 f7 bc c6 7d 61 be
       -0.07842058 0.06646632 -0.030269375 -0.22020635
0003a0 a7 6e 17 be a2 00 34 bc 89 bd 5b be 16 6b c2 bd
       -0.14788304 -0.010986479 -0.2145902 -0.09493081
0003b0 e9 32 cb 3d 76 2c e9 3d 63 5b a3 be 4b a3 25 bd
       0.0992182 0.113854334 -0.3190566 -0.04043893
0003c0 72 5d c6 be 22 87 b0 3d d6 2b 17 be 86 d7 ad 3d
       -0.38743168 0.086195245 -0.14762816 0.084883735
0003d0 be cd 8e be be ab 71 bb f2 77 39 be 5f d0 a7 be
       -0.27891344 -0.0036876048 -0.18112162 -0.32776162
0003e0 f7 d8 1f be ed 52 6f bc 3a 82 b9 bd f0 6e b2 be
       -0.1561011 -0.014607173 -0.09058042 -0.34850264
0003f0 43 0d 75 3c 85 50 8f be 9c a3 1a 3e cc 7c 7f bd
       0.014956775 -0.2799112 0.15101475 -0.062374875

sequential/dense_2/MatMul f4 [1, 64]
000000 96 f3 df bd 74 29 8a 3e 15 a0 ef 3e 6a 83 e9 be
       -0.10935132 0.2698475 0.4680182 -0.45608073
000010 ea 56 c7 be 43 e7 eb 3e 6d eb b4 3e 33 73 bc bd
       -0.38933498 0.46074876 0.35335866 -0.0920166
000020 14 07 aa be 43 0e b0 be 4f ac 01 3f 47 4e be 3e
       -0.33208525 -0.3438588 0.5065355 0.37169096
000030 88 a9 fe 3b 60 38 8e 3e 12 14 39 be b5 65 d8 be
       0.0077716745 0.27777386 -0.18074062 -0.42265096
000040 cd c1 b0 be 76 fe b4 be c1 0b d2 be 08 13 9d be
       -0.34522858 -0.35350388 -0.41024593 -0.30678582
000050 a1 66 42 3e ab a4 38 3e 9d f5 07 be d0 25 71 be
       0.18984462 0.18031566 -0.13277288 -0.2354958
000060 cb 30 b3 be 51 a8 82 be 24 8d b1 3e 25 ed c8 be
       -0.34998164 -0.2551904 0.34677994 -0.39243427
000070 a3 fa a9 3e 7e f0 17 3e 5a 8d 58 3e 26 ad 88 3e
       0.33199033 0.14837834 0.21147671 0.26694602
000080 14 8e 3f be db a0 b1 3e 8c 64 ad 3e 0e a0 77 be
       -0.18706542 0.34693035 0.33865774 -0.2418215
000090 8e 34 ca be 97 a7 62 3e 25 56 c8 3c f5 c3 cf be
       -0.3949322 0.22134243 0.02445514 -0.4057919
0000a0 a9 84 91 be fa 19 04 3f 59 06 a3 be dd 11 a5 bd
       -0.28421524 0.5160214 -0.3184078 -0.08060048
0000b0 c9 9c a0 3e c3 c8 8c be e5 c4 60 3e 10 02 cd 3e
       0.31369618 -0.2749692 0.2195011 0.40040636
0000c0 54 67 5d be a1 c6 a0 3e 71 06 97 3e 0b 39 e8 bc
       -0.21621448 0.31401542 0.29497102 -0.028347513
0000d0 8a ad 8e be c8 48 87 3e 72 61 a7 be 72 48 ee be
       -0.27866775 0.26422715 -0.32691532 -0.46539646
0000e0 84 4b 95 bd b5 c2 8c be ce 9a b6 be 2e ac dd be
       -0.07289794 -0.274923 -0.35664982 -0.43295425
0000f0 d6 c6 58 be 5d 63 01 bf 97 af 2e 3e ca 8c 89 3e
       -0.211696 -0.5054224 0.1705917 0.26865226
